data.pth (torch, 7402 bytes, 6 tensors)

l1.weight f4 [8, 95]
0	0x3e76ef39	0.24114694
1	0x3eb2858b	0.3486751
2	0xbe72edfb	-0.23723595
3	0xbde6e49b	-0.11274072
4	0xbe4f8ec1	-0.202693
5	0xbdd55d25	-0.104181565
6	0xbdb5c410	-0.088752866
7	0xbe3a4492	-0.1819022
8	0xbeec20e1	-0.46118835
9	0xbd1de892	-0.038551874
10	0xbd88de5d	-0.066830374
11	0x3f370c35	0.71503
12	0xbe9ef30d	-0.31044808
13	0xbe358f15	-0.17730363
14	0x3ed69249	0.41908482
15	0x3e872532	0.26395565
16	0x3f235ed0	0.6381655
17	0xbe4454d3	-0.19172983
18	0x3de5f8a0	0.11229062
19	0xbe7a18d3	-0.24423532
20	0x3edb4227	0.42823908
21	0xbe388aee	-0.18021747
22	0x3f150e44	0.5822489
23	0xbe99e700	-0.30059052
24	0xbe2a83f1	-0.16651894
25	0x3ebf56cf	0.37370917
26	0xbdd7ce4e	-0.10537396
27	0x3e9fe318	0.31227946
28	0x3edb3fcf	0.4282212
29	0x3f2041cf	0.62600416
30	0xbebdb89a	-0.37054902
31	0x3f0a4a70	0.5401983
32	0xbe9191b9	-0.2843149
33	0x3eb14cd4	0.34628928
34	0x3f206095	0.6264737
35	0xbe6ed9aa	-0.2332522
36	0xbdcd4a1f	-0.10023903
37	0x3e5c854d	0.21535225
38	0xbe6dcff8	-0.23223865
39	0xbe3dd5bb	-0.18538563
40	0xbd3b5d7e	-0.045743458
41	0x3ea8efbc	0.32995403
42	0x3eca9c7c	0.39572513
43	0x3eb87f84	0.36034787
44	0x3f13d407	0.57745403
45	0x3f1b72d4	0.6072209
46	0xbe8e22e1	-0.27760985
47	0xbeba10ae	-0.3634085
48	0x3ec75561	0.38932326
49	0xbe8c1c74	-0.27365458
50	0xbb259e8f	-0.002527151
51	0x3e8a345b	0.2699307
52	0xbe8fe515	-0.28104463
53	0x3eb0a433	0.34500274
54	0x3e4f8cab	0.20268504
55	0xbd8fab0e	-0.07015048
56	0xbd2d6428	-0.042331845
57	0xbe8fff1a	-0.28124315
58	0xbe58288e	-0.2110922
59	0x3f064f12	0.524644
60	0xbe81f43f	-0.25381657
61	0xbe8ff0f1	-0.2811351
62	0xbe6f6e15	-0.23381837
63	0xbe17d864	-0.1482864
64	0xbe5f0901	-0.21780778
65	0xbdb84955	-0.08998362
66	0xbf0f7640	-0.5603981
67	0xbe1d9f68	-0.1539284
68	0xbe7c4d13	-0.24638776
69	0xbdf9b53c	-0.12192771
70	0xbe9a8763	-0.30181417
71	0x3edf6f66	0.43639678
72	0x3ecc82ad	0.39943448
73	0xbe6cbc40	-0.23118687
74	0xbf03b12a	-0.51442206
75	0x3eab26c3	0.3342801
76	0x3e983fcf	0.29736182
77	0xbe6fc4c5	-0.23414905
78	0xbe92f0c9	-0.2869933
79	0x3ee887bd	0.4541606
80	0x3f250e7e	0.6447524
81	0x3ecf721f	0.40516755
82	0xbf29c9b4	-0.663234
83	0xbddc38d2	-0.10753025
84	0x3eb0114a	0.3438819
85	0xbe785e64	-0.24254757
86	0xbe6b8f18	-0.23003805
87	0xbe83166a	-0.25603038
88	0xbe54d579	-0.20784558
89	0xbdf87b75	-0.121329226
90	0xbe72f215	-0.2372516
91	0xbecc3107	-0.39881155
92	0xbe1b10a0	-0.1514306
93	0x3da371a7	0.07980662
94	0xbe6c140e	-0.23054525
95	0xbe362694	-0.17788154
96	0x3db9e8a3	0.09077575
97	0x3e8b5956	0.27216595
98	0x3ecbf25e	0.3983335
99	0x3ef801c5	0.4843885
100	0x3ee55efc	0.4479903
101	0x3ed99d26	0.42502707
102	0x3ee116d6	0.43962735
103	0x3f03112f	0.51198095
104	0xbdfb57fb	-0.1227264
105	0xbea7c88b	-0.3277019
106	0x3eb6c2cd	0.35695496
107	0x3e268104	0.16260153
108	0x3de75c0f	0.11296856
109	0x3e7064ef	0.23476003
110	0xbe504274	-0.2033785
111	0xbe70de61	-0.23522331
112	0xbe106914	-0.14102584
113	0xbe119eb0	-0.1422069
114	0xbec93be6	-0.3930351
115	0xbe6c8a78	-0.23099697
116	0xbe12fce7	-0.14354287
117	0xbe8d1903	-0.27558145
118	0x3f0ab22d	0.54178125
119	0x3d17eb69	0.03708974
120	0x3e05f38e	0.1308119
121	0x3ea9cf28	0.3316586
122	0xbe621fd1	-0.2208245
123	0xbeee6ee0	-0.46568966
124	0x3e8fcd71	0.28086427
125	0xbcfdb810	-0.030971557
126	0xbf2a4272	-0.6650764
127	0xbe2d6708	-0.16933835
128	0xbec6089d	-0.38678446
129	0xbf251130	-0.6447935
130	0xbd3cf3d5	-0.046130974
131	0xbe00683b	-0.12539761
132	0xbebfce7a	-0.37462217
133	0x3e64c8fe	0.22342297
134	0x3dd55678	0.10416883
135	0x3ef564db	0.4792851
136	0xbd9d96bb	-0.07694765
137	0x3da12f58	0.07870358
138	0x3e277be2	0.16355851
139	0xbb4aeaaa	-0.0030962625
140	0xbe71618a	-0.23572364
141	0x3ef9b67d	0.4877204
142	0x3f0e26af	0.55527776
143	0xbe25436a	-0.16138998
144	0x3e97bfdd	0.29638568
145	0xbea2b39d	-0.3177766
146	0x3e7bac13	0.2457736
147	0x3ed18ebf	0.4092922
148	0xbe6c8a42	-0.23099616
149	0xbe2411f0	-0.16022468
150	0xbe85ebc7	-0.26156446
151	0x3c9f57b2	0.019450996
152	0xbe6ef7cf	-0.23336719
153	0x3ee6ad97	0.45054314
154	0xbe127c26	-0.14305171
155	0xbe581ebf	-0.21105479
156	0x3ed2fa95	0.41206804
157	0x3e9d44dc	0.30716598
158	0x3e8f01bf	0.2793102
159	0x3ebfb806	0.37445086
160	0x3eaa283e	0.33233827
161	0x3f26a248	0.6509137
162	0xbeac7f89	-0.33691052
163	0x3f0a1ba2	0.53948414
164	0x3ef9d0f1	0.48792222
165	0xbe3e6510	-0.1859324
166	0xbec97177	-0.3934438
167	0x3da8b214	0.08237091
168	0xbeb900ee	-0.36133522
169	0x3f2333c9	0.6375089
170	0xbd006ad3	-0.031351876
171	0xbd8fb3db	-0.070167266
172	0x3eb5431e	0.3540277
173	0xbef3ee2f	-0.47642657
174	0xbe39bd5c	-0.18138641
175	0x3df40cfa	0.119165376
176	0xbd066042	-0.032806642
177	0x3f75fee0	0.96092033
178	0x3e680f9d	0.22662206
179	0xbe9eb2e7	-0.30995867
180	0x3eabb24f	0.33534476
181	0x3f0bbc82	0.54584515
182	0x3f08edab	0.5348765
183	0x3e9aba9d	0.302205
184	0x3ee83659	0.45353964
185	0xbe642977	-0.22281443
186	0x3e38c4c1	0.18043806
187	0xbe2f2044	-0.17102152
188	0x3e869865	0.26288143
189	0xbd61cd0a	-0.05512718
190	0x3ec5323a	0.38514882
191	0x3dba3a3c	0.090931386
192	0x3e3de4c9	0.18544306
193	0x3e0146ba	0.12624636
194	0xbe7f1c95	-0.24913247
195	0x3ecfb767	0.40569612
196	0xbe02d2fc	-0.12775797
197	0x3e7f127b	0.24909393
198	0xbebbe19f	-0.36695573
199	0x3ebf43cd	0.37356415
200	0x3ef32a47	0.47493193
201	0xbed833ab	-0.4222692
202	0x3e891c39	0.26779345
203	0x3e827f71	0.25487855
204	0xbe2bf61e	-0.16793105
205	0xbe7bda32	-0.24594954
206	0xbe51f14e	-0.20502207
207	0x3f07697c	0.5289533
208	0x3e3a098f	0.18167709
209	0x3ebbb7a8	0.36663556
210	0x3edadc3d	0.42746153
211	0x3edd01cf	0.43165442
212	0xbe9c5359	-0.3053234
213	0x3e400bd2	0.18754509
214	0x3e971d6b	0.29514632
215	0xbe563b0e	-0.20920965
216	0xbedc0ee2	-0.42980105
217	0x3ed2a8df	0.41144463
218	0x3f206a4a	0.62662184
219	0xbef4240b	-0.4768375
220	0x3e2e7245	0.17035778
221	0x3f3f65a1	0.7476445
222	0x3f32d228	0.69851923
223	0x3ef637fa	0.48089582
224	0x3f4f5b0f	0.8099832
225	0x3f0247ba	0.50890696
226	0x3eb7b517	0.35880348
227	0x3ed125ab	0.4084905
228	0x3e873808	0.26409936
229	0x3ea53b42	0.32271773
230	0xbde0e95c	-0.1098201
231	0xbe933038	-0.28747725
232	0xbe830380	-0.25588608
233	0xbeb80c89	-0.35947064
234	0xbe3568de	-0.17715785
235	0xbe8b307a	-0.27185422
236	0x3e290d4d	0.1650898
237	0xbdb01ce7	-0.08599263
238	0xbe4e46da	-0.20144215
239	0xbeecf123	-0.46277723
240	0x3ee2fdfe	0.44334406
241	0xbce68ef7	-0.028144343
242	0x3e8ad25c	0.27113616
243	0x3eddf4ff	0.4335098
244	0x3e9d7ebb	0.3076075
245	0x3ed898ec	0.4230417
246	0x3eb4f648	0.35344148
247	0x3ee2e73f	0.44317052
248	0xbea6eb57	-0.32601425
249	0xbe866532	-0.2624908
250	0x3efb8699	0.49126127
251	0xbea0e785	-0.31426635
252	0xbe20d1d7	-0.15705048
253	0x3cd83538	0.026392564
254	0xbea98543	-0.33109483
255	0xbdf13122	-0.117769495

l1.bias f4 [8]
0	0x3f6a944e	0.91632545
1	0x3f325ec5	0.69675857
2	0x3ef425a8	0.4768498
3	0x3ed87012	0.42273003
4	0x3ed30a9b	0.4121903
5	0x3f3847a2	0.71984303
6	0x3f543ebe	0.82908237
7	0x3f02c526	0.51082075

l2.weight f4 [8, 8]
0	0x3f7ab64d	0.9793442
1	0xbebcc068	-0.36865544
2	0xbf6b77e8	-0.9197984
3	0x3f8267d4	1.0187936
4	0xbf3a1d0f	-0.7270059
5	0x3e3e4b91	0.18583514
6	0xbf1f8fb7	-0.62328666
7	0xbf3f6750	-0.7476702
8	0x3ed3f186	0.41395205
9	0xbe8b691f	-0.2722864
10	0x3f8a5578	1.0807333
11	0x3f80ef2e	1.0072992
12	0x3f45db6e	0.7728795
13	0x3fb044e1	1.377102
14	0xbf402539	-0.750568
15	0xbeada73a	-0.33916646
16	0x3f339c28	0.7016015
17	0x3f4eced4	0.80784345
18	0xbf75bd48	-0.95991945
19	0xbf8ef40e	-1.116823
20	0x3f0b9193	0.54519004
21	0x3eac4d30	0.3365264
22	0x3f3a39a3	0.72744197
23	0x3ed1149b	0.40836033
24	0xbf3b9ab9	-0.73282963
25	0x3f4e2e30	0.80539227
26	0x3f398a36	0.7247652
27	0x3e826e7f	0.25474927
28	0x3f2cb377	0.6746134
29	0xbf99ffcf	-1.2031192
30	0x3f1437dc	0.57897735
31	0x3f7071ee	0.9392384
32	0x3e6e872e	0.23293754
33	0xbf17f5c0	-0.5935936
34	0x3fa7b634	1.3102479
35	0xbf1201ba	-0.57033885
36	0xbe313bbe	-0.17307946
37	0x3e81eba9	0.25375107
38	0x3fc2358b	1.517259
39	0x3e5af54d	0.21382637
40	0x3f465899	0.7747894
41	0x3f15d717	0.58531326
42	0xbe20b547	-0.15694152
43	0x3f0251b6	0.5090593
44	0xbfa96c77	-1.3236226
45	0x3f92f67c	1.1481471
46	0x3f6d4240	0.92679214
47	0xbf382c8e	-0.71942985
48	0x3dbe4c79	0.0929193
49	0x3fbeb21c	1.4898105
50	0xbefabb9d	-0.48971263
51	0xbd916e77	-0.071011476
52	0x3f0b7e35	0.5448945
53	0xbcd41719	-0.02588992
54	0xbcd05ffe	-0.025436398
55	0x3f820cea	1.0160191
56	0xbf8f685c	-1.1203723
57	0x3f51209e	0.81690395
58	0x3ee137fe	0.4398803
59	0x3f734ff1	0.95043856
60	0xbc2566b3	-0.010095286
61	0x3f3da307	0.74076885
62	0xbebb0e74	-0.36534464
63	0x3f35e961	0.7105923

l2.bias f4 [8]
0	0xbda19a30	-0.07890737
1	0x3ea4b0c2	0.32166106
2	0x3f57601e	0.8413104
3	0xbe5d6eeb	-0.21624343
4	0x3eafc462	0.34329516
5	0x3f1a0c1b	0.6017472
6	0x3ee3ebb4	0.44515765
7	0x3e8ae1bb	0.27125344

l3.weight f4 [9, 8]
0	0xbe26edb9	-0.16301621
1	0xbfc72fca	-1.5561459
2	0x3ee1dea4	0.44115174
3	0x3ed0fe99	0.40819243
4	0xbf579573	-0.84212416
5	0xbf967976	-1.1755817
6	0x3f327683	0.69712085
7	0x3e94f13e	0.29090303
8	0xbf2ed19d	-0.68288594
9	0x3f5a805b	0.85352105
10	0xbfa19d7a	-1.2626183
11	0xbf0b4b1d	-0.5441149
12	0x3e9d426b	0.30714735
13	0xbf88a16f	-1.0674266
14	0xbf89d32c	-1.076757
15	0x3f0dc18a	0.5537344
16	0xbf1738c6	-0.59071004
17	0x3ecc41ae	0.3989386
18	0x3f315f80	0.69286346
19	0xbf31cf4c	-0.69456935
20	0xbf7f4713	-0.99717826
21	0xbf9cf0f8	-1.2261038
22	0x3f147eac	0.58005786
23	0xbf9b4dde	-1.2133138
24	0xbf07a13b	-0.52980393
25	0xbff9287e	-1.9465482
26	0x3f80c704	1.0060735
27	0xbf18d61a	-0.59701693
28	0x3f04fcbe	0.51948154
29	0x3e8c5841	0.27411082
30	0x3e8f89ee	0.2803492
31	0xbf98e54b	-1.1944975
32	0xbf8efce2	-1.1170924
33	0x3e0d93ec	0.13825959
34	0xbdae1bf6	-0.08501427
35	0xbf62acb5	-0.8854478
36	0x3f64a161	0.89308745
37	0x3ef7aeb3	0.48375472
38	0xbf9d57c2	-1.2292407
39	0xbf76ece7	-0.96455234
40	0x3f647625	0.89242774
41	0x3e9fb6eb	0.31194243
42	0xbeec577b	-0.46160492
43	0xbf2333cd	-0.63750917
44	0xbfac42c1	-1.3457872
45	0x3f1ef333	0.6208984
46	0xbf1cc434	-0.6123688
47	0xbf5e18df	-0.867567
48	0xbdd1174a	-0.1020952
49	0xbf1cfd8b	-0.61324376
50	0xbf591b1e	-0.84807
51	0x3f17df93	0.5932552
52	0x3f50f159	0.8161827
53	0xbf88ad5b	-1.0677904
54	0x3d2c99af	0.04213875
55	0x3e0dccf9	0.13847722
56	0xbee41e02	-0.44554144
57	0x3e8b9733	0.27263793
58	0xbf774e2d	-0.9660366
59	0x3e3ad62a	0.1824576
60	0xbf3f10aa	-0.746348
61	0xbfbbc2c8	-1.4668818
62	0x3ecdbc52	0.4018274
63	0x3f18d89b	0.59705514
64	0xbf8a3e90	-1.0800343
65	0xbecfa7ce	-0.40557712
66	0xbd235c33	-0.03988285
67	0xbf73eb64	-0.9528105
68	0xbf831e6f	-1.0243663
69	0x3ee4766e	0.44621605
70	0x3ebd5d18	0.36985087
71	0x3f34f6c3	0.7068903

l3.bias f4 [9]
0	0xbe60c2d3	-0.2194932
1	0x3d36eb7c	0.04465817
2	0x3e9e665b	0.30937466
3	0x3d8d0b31	0.068869
4	0xbe279378	-0.16364849
5	0xbd9ca1df	-0.07648062
6	0x3c2fc8a6	0.010728991
7	0xbe4d1f86	-0.20031556
8	0xbd8717a0	-0.06596303
