data.pth (torch, 6954 bytes, 6 tensors)

l1.weight f4 [8, 80]
000000 a2 02 07 bf 10 54 e9 3d 86 7a db 3e d7 51 1b 3c
       -0.5273839 0.11392987 0.42866915 0.009479961
000010 3a 2d 4b 3e 77 87 98 3e 0a 92 ec bc 53 66 e1 3e
       0.19841471 0.2979085 -0.02887823 0.4402338
000020 3e 46 0a 3e dc 8a 56 bb 46 b8 41 3f 72 cd 17 bf
       0.13503358 -0.0032736575 0.75671804 -0.5929786
000030 07 cd 8c bf 4a 2d a2 bd af 02 12 3f 9c 25 a0 bd
       -1.1000069 -0.079187945 0.57035345 -0.078196734
000040 fe 68 0d 3f e4 b3 01 bf c6 cc 78 3f ea 7e 4b bd
       0.5523833 -0.50665116 0.9718746 -0.04968158
000050 80 cd 36 bc 1f aa 9a 3e f1 09 e0 bd cc ab 78 be
       -0.011157393 0.30207917 -0.10939396 -0.24284285
000060 c2 24 07 3e f8 3b c3 3b 73 66 b2 3e f6 8e 14 3f
       0.13197616 0.0059580766 0.34843788 0.5803064
000070 fe 4e 38 3f b5 e3 2e 3e 76 81 bb 3e 04 ce 24 3f
       0.7199553 0.17079051 0.36622208 0.64376855
000080 b8 cd b7 3e 48 52 2d be 50 46 a7 3e 20 8e bf 3e
       0.35899138 -0.16925919 0.32670832 0.3741312
000090 4e 4c f3 3d e9 15 39 3f 75 37 43 3d ca ae f8 3d
       0.11879788 0.7229906 0.04766031 0.12142713
0000a0 f4 36 c6 3e da 0e 6d 3e 41 56 f6 be c4 3a 38 3f
       0.387138 0.23150197 -0.48112682 0.7196467
0000b0 b0 db ee 3e a9 30 e6 3e d7 0d 3e 3f 0a 7b d1 3d
       0.46651983 0.44959 0.7423987 0.10228546
0000c0 34 e0 80 3e 1d 34 2e 3f fc 32 a6 3d b3 1c fd 3d
       0.25171053 0.6804827 0.08115193 0.123589896
0000d0 4b 0d 0b 3e 80 17 a0 be 32 bb 40 3e d7 77 ef 3d
       0.1357929 -0.3126793 0.1882141 0.116927795
0000e0 7e 2d 8d bf 51 16 3c be 0b 29 be 3e 62 3e 0d 3f
       -1.1029508 -0.18367888 0.37140688 0.55173314
0000f0 9f 83 1d be d3 d2 0d 3f bf 27 24 3f 4f 77 d7 3d
       -0.1538224 0.5539982 0.6412315 0.10520803
000100 50 9b 09 bf f1 64 e5 3e ea 7b ba be bd 51 28 3f
       -0.53752613 0.44803575 -0.36422664 0.6574972
000110 bf fd 86 bd 24 88 30 3f 03 c0 c6 3e 27 0e 7d 3d
       -0.06591367 0.68957734 0.38818368 0.061781075
000120 c5 8b 51 3e a3 f8 1a bf 23 c2 99 3e cb 95 9e 3c
       0.20463474 -0.6053564 0.30030927 0.019358536
000130 9e f8 2c 3e df b1 4a be c3 79 2f 3e f1 8c 73 bf
       0.16891715 -0.19794415 0.17136292 -0.95136935
000140 94 aa 03 bf 75 83 d2 bd 0a 9d ac 3e b8 f7 29 3e
       -0.51432157 -0.1027898 0.3371356 0.16598403
000150 0a 93 87 be d0 e4 e2 bc 39 90 0f 3e 31 b0 79 be
       -0.2647937 -0.027696997 0.1401986 -0.24383618
000160 64 e8 09 3f ce 4d c5 3d 01 98 5d 3f 76 1c df be
       0.53870225 0.09633981 0.86560065 -0.435764
000170 db 75 05 3f 60 5a 02 3e 64 d0 ee 3e 8d 7f 00 3f
       0.5213296 0.12729788 0.46643364 0.5019463
000180 ed 94 70 be 02 78 b7 3c 67 dc 5f 3f 84 5f c4 3e
       -0.2349431 0.022396091 0.8744568 0.38354123
000190 9b 43 00 3e a3 1d f4 3e d6 48 29 3f 58 0b 9e 3d
       0.1252579 0.4767886 0.66126764 0.077170074
0001a0 2d ac aa bd c8 bb 00 3f fc b7 01 bd c0 ca 73 3e
       -0.08333621 0.5028653 -0.0316696 0.23807812
0001b0 f3 a1 f2 be 84 94 6d 3c 3c 75 3e be 7d 78 80 3f
       -0.47389182 0.014500741 -0.18599409 1.003677
0001c0 80 22 0b be d4 8d 34 3e ec 47 83 bd 95 83 06 be
       -0.1358738 0.17632228 -0.064102024 -0.13136132
0001d0 53 31 18 3f 4b c6 8a 3f b8 1c 25 3f 5f a6 09 3f
       0.5945026 1.0841764 0.64496946 0.5376949
0001e0 51 5e 9d be a5 96 30 bf 6c 17 ae 3f cb 18 cf bc
       -0.3073602 -0.68979865 1.3600898 -0.025280377
0001f0 3f bc 07 3e 52 b1 0a 3f c1 20 3c bc a0 42 9e bd
       0.13255404 0.5417682 -0.0114824185 -0.077275515
000200 9f b8 81 be de 72 c3 3d 4a e6 83 3e 2c 8f da bc
       -0.25336167 0.095433936 0.25761634 -0.026679598
000210 91 65 b0 be 37 6b 19 3d 2f d4 3b bd 61 80 85 3e
       -0.3445249 0.037455764 -0.04585665 0.26074508
000220 69 d7 a1 bf 98 23 bd 3e 55 7a 75 be 0f 3f 1a 3f
       -1.2643863 0.36941218 -0.23972447 0.6025247
000230 65 9a 06 be c6 88 52 bd 63 3e 6d 3f d9 3b 01 bd
       -0.13144834 -0.05139997 0.9267332 -0.031551216
000240 a8 ac 1c bf ce 9f 0e 3f 80 13 c3 3d 51 6a ed 3e
       -0.6120095 0.5571259 0.09525204 0.46370175
000250 7b 8b 70 3e 22 2e 56 bd f9 7a 22 bf 30 77 6f 3d
       0.23490708 -0.05229009 -0.6346889 0.058463275
000260 1c ab 2a bd a7 33 9e be c5 be 11 3f 31 ec 01 3f
       -0.04166709 -0.30898783 0.56931716 0.50751024
000270 56 65 80 3e 07 9d 18 3f e8 a9 ab 3d bc fe 04 bf
       0.25077313 0.59614605 0.083820164 -0.51951194
000280 13 d0 52 bf a9 5f d6 be e9 eb 1c 3e 94 1d 09 3e
       -0.82348746 -0.41869858 0.15324368 0.1339019
000290 0c c5 2c 3f 7d ba ee 3e 17 77 50 bd c5 df 35 3e
       0.6748817 0.46626654 -0.050894823 0.17761143
0002a0 53 d1 df 3e 08 df ec bd d3 8a a2 bd 5f df 64 bf
       0.4371439 -0.11565977 -0.07936635 -0.8940334
0002b0 b2 8b b9 3e 6f cf 75 3e 6d 66 42 39 01 05 8f 3f
       0.36239392 0.24004911 0.00018539438 1.1173402
0002c0 b8 e7 0d 3f 7a 5f 1a 3f c8 99 16 3d 21 7b d9 be
       0.554317 0.60301936 0.03676775 -0.42476752
0002d0 ae f9 06 bd 5f 4c b8 3d f5 95 c2 3e b8 a8 2a 3f
       -0.032952957 0.08998942 0.38005033 0.66663694
0002e0 b0 fd aa be 55 d3 18 3f 04 5f 93 3e 14 af 16 be
       -0.33396673 0.5969747 0.2878343 -0.14715225
0002f0 21 99 21 3f 67 5d 84 3c 7e c7 b2 be 1b b8 60 be
       0.6312428 0.016157819 -0.34917825 -0.2194523
000300 22 e2 2e bf 9b af d8 3e 27 08 d5 be a0 f6 2e bf
       -0.683138 0.42321476 -0.41607782 -0.6834507
000310 5c a8 1f 3e 4a a3 5e 3f 61 e7 da 3e 04 aa 03 3f
       0.15591568 0.8696791 0.42754653 0.514313
000320 c5 1f 37 be 0c 91 27 bf 3f d3 00 3f be 77 9f bd
       -0.17883213 -0.654557 0.50322336 -0.07786511
000330 78 e2 50 be 2b 6c d1 bc bd 6e 2f bd f1 e3 35 3f
       -0.20398891 -0.025564274 -0.042830218 0.71050936
000340 9d 7f 0f be 5c a1 fe bd 22 23 cf 3e 1e c3 aa be
       -0.14013524 -0.124331206 0.40456492 -0.33351988
000350 75 26 12 3f 34 07 34 3f 6f e3 39 3f 38 53 95 3e
       0.5708993 0.7032349 0.7261266 0.29165053
000360 42 06 4d 3c 0d 4a fe be a4 c7 95 3e 92 11 f5 bd
       0.012513699 -0.4966587 0.29253876 -0.11966242
000370 08 e7 97 3e 71 a4 08 3f 0a e2 2e bf 4d 91 30 3f
       0.2966845 0.5337592 -0.6831366 0.6897171
000380 98 62 83 3f f6 3b 39 be 9a 90 3a 3f 3b c0 57 bd
       1.0264463 -0.1808928 0.72876894 -0.05267356
000390 e3 4d 51 3e ce a4 ca bd 3f 91 79 3c 90 d8 46 bd
       0.20439868 -0.09894715 0.015232383 -0.048546374
0003a0 21 c3 88 be 38 0a 83 3f 09 00 bb 3e 79 77 04 3f
       -0.26711372 1.0237494 0.36523464 0.517448
0003b0 46 c8 99 3d 9c ce c4 3e 74 21 73 3c ea da 53 3f
       0.07508902 0.3843888 0.014839519 0.8275591
0003c0 03 71 11 bf 47 61 e0 be 1b 03 95 3e f1 30 04 3d
       -0.5681307 -0.43824217 0.29103932 0.032273237
0003d0 dc 82 18 3f a6 43 12 3f 72 2b c4 bd 66 53 39 bc
       0.59574676 0.57134473 -0.09578599 -0.011311388
0003e0 80 a1 7d 3e c8 f6 c8 3d 73 e2 cb 3e cb c7 bc be
       0.24768639 0.09812695 0.39821205 -0.3687118
0003f0 ff 2e 45 bf f0 3f da 3d ec b3 74 3e 94 27 93 3f
       -0.77024835 0.10656726 0.2389676 1.1496453

l1.bias f4 [8]
000000 46 2f 76 3f f2 06 0d 3f 69 de 2e 3f c9 15 12 3f
       0.96165884 0.5508872 0.6830812 0.5706449
000010 37 58 a7 3f e7 2f 34 3f cb 55 f3 3e be 22 96 3f
       1.3073796 0.70385593 0.47526392 1.1729352

l2.weight f4 [8, 8]
000000 27 e0 ef 3f 83 18 6e 3f 75 37 37 bf 0c 81 c9 3d
       1.8740281 0.9300615 -0.71568996 0.09839067
000010 f5 eb d0 3f 20 6d 4b bf 0d 12 cb bf 2e 0d 95 3f
       1.6322008 -0.79463387 -1.5864884 1.1644647
000020 77 e3 48 bf a3 5b 9d be b3 c7 a2 3e 09 10 ca bf
       -0.78472084 -0.30733976 0.31792983 -1.5786144
000030 af 0a 89 3e 62 5f 05 3f ca a2 7a 3f 37 f4 e6 3f
       0.26765963 0.5209867 0.97904646 1.8043278
000040 74 ae a0 3e 17 e8 ae bf 2e 5d 8a 3f 77 01 30 bc
       0.31383097 -1.3664578 1.0809686 -0.010742537
000050 71 d8 ad 3f 58 15 d3 3f 27 d0 8b bf f1 20 42 be
       1.3581678 1.6490889 -1.0922898 -0.18957879
000060 5c 81 47 3c 74 46 18 3f 80 e9 8f bf 82 0b c6 bf
       0.012176838 0.594825 -1.1243134 -1.5472262
000070 ad ed b5 3f 6b 03 5c bf ae 03 5a 3e 34 5d 65 3f
       1.4213158 -0.85942715 0.21290466 0.8959534
000080 6c c3 93 3f 54 ad e7 3f 2e 44 c2 3f 0f 3b e0 3f
       1.1544013 1.809977 1.5177057 1.7518023
000090 29 a0 da be 88 40 ab bf 9a 3a 18 3f aa c1 b9 bc
       -0.42700318 -1.3379068 0.5946442 -0.022675354
0000a0 81 9a d8 3f 8a 37 c8 bd 53 89 37 3f 0b 87 c8 3f
       1.6922151 -0.09776218 0.71693915 1.5666212
0000b0 0f 44 cd 3f 2f 98 c8 bd f1 75 bb 3d c9 13 40 bf
       1.6036395 -0.09794652 0.09153355 -0.7503019
0000c0 7e 82 92 bf 9b 51 9e 3f 7d d3 7f 3f 60 5f 19 bf
       -1.1446073 1.2368654 0.9993208 -0.59911156
0000d0 ea 5e 26 3d 05 d4 65 3f d6 1c cb 3f 46 f0 2d 3f
       0.04061786 0.8977664 1.5868175 0.67944753
0000e0 b4 ae 29 be 99 22 73 bf 0e 44 ad 3f 8f 34 8e 3f
       -0.1657055 -0.94974667 1.3536394 1.110979
0000f0 4f 24 76 3f bb cb 14 40 ef 07 8a 3f 6c 5f 4b bf
       0.9614915 2.3249347 1.0783671 -0.7944248

l2.bias f4 [8]
000000 93 e9 7a 3f d0 a4 3d 3f 36 59 79 3e cc 11 df 3e
       0.98012656 0.7407961 0.24350438 0.43568265
000010 5b 17 bb bd bf d3 03 3f 61 df 8d be d6 74 ce 3e
       -0.09135314 0.51494974 -0.27709487 0.40323514

l3.weight f4 [16, 8]
000000 b8 fa 9a bf 55 da 12 3f 1c a0 10 c0 33 9d 04 bf
       -1.2107763 0.573644 -2.2597723 -0.51802367
000010 9b ca 47 be a7 f4 e5 bf 96 a5 07 3f 00 5f 4e 3e
       -0.19510882 -1.7965287 0.5298704 0.20153427
000020 98 1f 00 3f f0 d4 33 3f dc da 0d c0 b3 af 84 3f
       0.5004821 0.7024679 -2.216483 1.0366119
000030 2d b4 dd bf cc bb fa bf 53 9f 18 be 0c 9d ad bf
       -1.732061 -1.9588561 -0.14904527 -1.3563552
000040 6c 9a 08 3f d9 62 1a bf 6f 74 d9 bf 2f 1c f5 bf
       0.5336063 -0.6030708 -1.6988658 -1.9149226
000050 2b 13 57 3f dd ad 52 bc 3e 48 37 be f6 62 da bf
       0.84013623 -0.012858835 -0.17898652 -1.706145
000060 35 6c 74 3d f8 08 92 bf a7 fc 05 c0 db 94 41 c0
       0.059673507 -1.1408987 -2.0935457 -3.0247104
000070 ad 38 04 3f 66 88 28 3f 4b 50 e4 bf 5c fd f4 3e
       0.5164898 0.6583313 -1.7837003 0.47849548
000080 70 73 45 3f 38 1c f8 bf bc 39 c7 be 15 e1 f7 be
       0.7712927 -1.9383612 -0.38911235 -0.4841391
000090 a1 08 44 be 2e b7 2c 3e 38 8e 6f bf c4 5a 65 3d
       -0.19143917 0.16866753 -0.93576384 0.055994764
0000a0 f9 fd 1b 3f 53 72 19 3f 13 99 a1 be 29 20 56 3f
       0.60934407 0.5994007 -0.315621 0.8364282
0000b0 11 9d d5 bf 0a c2 80 3e fa f4 08 c0 92 39 c5 bf
       -1.6688558 0.2514804 -2.1399522 -1.5408194
0000c0 1d 3a 96 be 76 e4 82 bf 59 90 80 bf fc 9c ab bf
       -0.29341212 -1.0225971 -1.0044051 -1.3407283
0000d0 93 68 df 3e 38 db 28 bb 68 ab ec 3e 0f ca a1 3d
       0.4363447 -0.002576543 0.46224523 0.07899868
0000e0 11 d5 98 3e 57 7d 21 3f a6 c5 42 bf a1 85 19 be
       0.29850057 0.6308188 -0.7608284 -0.14992382
0000f0 a6 2f ae bf 4d e9 0d bf 2e 01 a1 bd f8 8b 00 be
       -1.3608291 -0.55434114 -0.07861553 -0.12553394
000100 2d 73 13 bf 0b f3 05 3f 04 df ae bf 33 06 0e be
       -0.5759762 0.5232398 -1.3661809 -0.13869552
000110 bd eb 1d 3f b6 5e b8 bf 6f 2a b9 3e 50 b7 e2 bf
       0.61687833 -1.4403903 0.36165187 -1.7712193
000120 58 64 e4 bf 64 cb da bf aa 53 22 be 1c c6 2a c0
       -1.7843122 -1.709332 -0.15852228 -2.6683416
000130 e2 27 97 3d de 47 14 3f 2d 8e 9a bc 97 ee 2f 3f
       0.07380654 0.5792216 -0.018866623 0.68723434
000140 69 76 96 be 07 5b 88 bf 5a 23 25 3f 4b 84 2a c0
       -0.29387215 -1.0652779 0.6450707 -2.6643245
000150 e5 7c 51 bd 12 31 97 3e b5 55 f7 bf 14 80 13 3f
       -0.0511445 0.29529625 -1.9323031 0.57617307
000160 74 34 4f bf e7 16 d3 be a7 c1 09 3f b6 5c 1c c0
       -0.8093941 -0.4122841 0.53811115 -2.4431586
000170 1f 7d b5 bf 5a f4 89 3e ef c3 74 be 41 f8 23 3f
       -1.4178809 0.26944238 -0.23902868 0.6405068
000180 aa 8b 28 bf 3f bb 2d 3f 38 06 40 3e d4 5a d1 bf
       -0.6583811 0.6786384 0.18752372 -1.6355844
000190 d8 97 f7 bf ec 8d 0c c0 78 1e f5 3d 6c e8 27 3f
       -1.9343214 -2.1961622 0.11968702 0.6558902
0001a0 d0 56 0c 3f bb 87 b4 3e 5e 6e 11 c0 55 bb b3 3e
       0.54819965 0.35259804 -2.2723613 0.3510386
0001b0 33 25 d1 bc 20 c0 31 bf e7 c4 d5 be 20 ac be bf
       -0.025530433 -0.69433784 -0.41751787 -1.4896278
0001c0 a9 80 01 c0 f7 ed fd 3d cd 90 a9 be 1a 9f 19 c0
       -2.0234778 0.12398904 -0.33118287 -2.4003358
0001d0 45 c6 09 be ac 67 38 bd 58 f1 97 3e b0 4d c2 3e
       -0.1345454 -0.045020744 0.29676318 0.37949896
0001e0 a8 50 03 3f 62 5e 9f bd af 76 ab 3e 78 d7 73 bf
       0.51294947 -0.07781674 0.33488986 -0.95250654
0001f0 ed 86 11 c0 81 2e ec 3e c6 20 d9 bf 11 78 80 3e
       -2.2738602 0.4612923 -1.6963127 0.25091603

l3.bias f4 [16]
000000 ab 9d 2e be cc c9 bf bd 72 72 1d be 34 c0 fb bd
       -0.17052333 -0.093646616 -0.15375689 -0.12292519
000010 6c 84 6f 3e 8b 19 20 3d e5 ea 0c 3d 4a 54 9d 3e
       0.23390359 0.03908686 0.0344037 0.3072837
000020 1c 61 d0 bd cd 08 a5 be f3 06 f2 be a5 3a eb 3d
       -0.10174772 -0.32233277 -0.47270927 0.11485795
000030 b1 67 e3 3e 14 1a 88 be 45 e2 3c bd a2 41 1e be
       0.44415048 -0.26582396 -0.046114225 -0.15454724
